A2/softmax_best_model.pt (torch, 247059 bytes, 1 tensors)

W f8 [3073, 10]
00000000: dbda 5acc bd54 613f 125d 2f68 5e67 543f
00000010: eecf ae05 8ecc 6cbf e9e9 65f2 9930 75bf
00000020: 2f3b b4e7 7e4f 9cbf f4ce 64f8 adb1 87bf
00000030: 4abe 393a 38f8 853f ba13 d7db 2e8c 6dbf
00000040: 1a5d fbc5 a6ec a13f 5b4c 5cfc b0c6 633f
00000050: 6669 98c9 e16b 6fbf e2a5 bfc9 74d8 7a3f
00000060: 58df a741 3e0f 7b3f a59b 0927 6efd 37bf
00000070: 4275 32f3 9eaf 88bf 7621 b5b6 69e3 95bf
00000080: d63c 4760 da0e 893f d8eb 374b 5cd5 8bbf
00000090: b9f3 845d f250 9f3f 4bbe 777e fd7c 73bf
000000a0: 43d2 3b24 ba04 81bf e695 be36 0bce 883f
000000b0: 2643 d706 6ba2 893f a57f 57e4 4bfe 483f
000000c0: cac8 7663 34ee 6bbf c172 273f 37f1 93bf
000000d0: 8fe7 9bc9 d30f 813f 42f6 f7bb 66ed 88bf
000000e0: 9f67 222d 17a0 983f 6f68 1ba7 d57f 8dbf
000000f0: 17ee b9af 13e0 71bf d712 65b6 6c3e 863f
00000100: 3f1f d72a cb5b 803f f17b 4917 2f3e 47bf
00000110: be30 ac89 27c6 34bf 11bd 5f35 c920 81bf
00000120: a0aa e437 7cc1 4f3f 0e76 d4cf cf1e 8cbf
00000130: 579c f1f7 a6af 993f 031a c42d c5d6 91bf
00000140: d44f c816 8245 503f fe1e c1e7 0793 8b3f
00000150: 1f31 a395 9d76 5c3f 625c f44b 6cd6 60bf
00000160: 8dd8 25fa e5b2 7c3f 51af 9d95 f155 70bf
00000170: b74e 680f 3a66 73bf d4ed a7c1 4e76 8ebf
00000180: 8eb7 83a2 542a 953f 918d e9cc f9a6 92bf
00000190: 6248 0678 411b 603f e165 5b95 7c09 773f
000001a0: 779b 7082 c281 713f 3aed 0092 9e29 1f3f
000001b0: ea81 afb7 661a 543f 9f16 aca2 2bb7 77bf
000001c0: 3e87 455c c24a 31bf e47b c670 66ff 59bf
000001d0: bb10 59e7 99a5 913f d892 7609 135a 97bf
000001e0: 704a 8328 df9d 61bf 80fa e6d5 1948 7a3f
000001f0: f97f 3358 d5e9 7a3f b847 ad74 c347 783f
00000200: a286 a52d 691a 4dbf 89ec 0dba 0dae 62bf
00000210: 7d64 8fd3 e0d6 54bf c9de 4042 c958 7bbf
00000220: 551b 8243 1608 903f 3d45 25de 09d1 95bf
00000230: 3b6d 61f6 45a7 7abf 1ca2 48ea 03c3 7c3f
00000240: 210a aa74 483f 7e3f 0c37 654b 93a6 923f
00000250: 1ac5 c695 7c00 153f 8c83 5574 640f 75bf
00000260: c597 4d37 1bf5 453f b7ac 3870 1a18 92bf
00000270: aa0d 6d6b a946 913f 0d0f 83c6 b46c 95bf
00000280: 6405 26a5 acf7 80bf 3a9e 9260 6757 853f
00000290: a89d aac2 b913 3f3f 0e61 cbfe e30b 8e3f
000002a0: e0a2 ca73 f49c 753f 1dd0 587e 985b 89bf
000002b0: c6d6 605e 5c3a 913f 4491 67ae cc12 97bf
000002c0: 1551 615f 4bbd 863f 3522 508d b3e0 8fbf
000002d0: a6f4 b323 5c22 85bf 161b 1ffd fe19 8c3f
000002e0: 2269 be6b de86 47bf e5ba 44cb a3c3 883f
000002f0: c034 fe77 f3a2 833f 588a d2c4 ed2d 68bf
00000300: 2eb9 8227 b2c4 8b3f e36a 9879 56fe 95bf
00000310: 9e25 b967 db99 7a3f ca6d 8fd7 ee77 94bf
00000320: f52c 213b 64f2 83bf 88a6 de56 e729 813f
00000330: d3e2 3aac aa4f 47bf 3fef 05b4 e924 863f
00000340: efa5 f86d a9f7 803f 540d fbc2 36c8 7c3f
00000350: 28dc 23d5 dbd8 843f bfd6 20c7 e3aa 96bf
00000360: cc34 3302 5ecf 7c3f 75b6 714a a596 93bf
00000370: f53b 7a4c 7c6a 74bf 904f 5e16 6e4a 853f
00000380: 3dfb 812a ac81 523f ba99 f9d3 b13b 923f
00000390: ea3f aa72 dbeb 523f f0b8 b70f 5126 793f
000003a0: 5afc 74da ed23 543f 6a75 e6c3 012e 92bf
000003b0: 4d67 8e65 f531 683f cfad 3194 e781 92bf
000003c0: 07e9 892e f1a3 80bf 0a96 9e7a 6da0 9c3f
000003d0: 376c b7e0 7f00 61bf a988 f7aa 3210 913f
000003e0: ced5 c2c2 9a98 5dbf 3edc 54bd 5efc 513f
000003f0: 50e1 9d81 207a 30bf 3cad 6f99 96dd 92bf
00000400: fd66 bb8e 1193 5ebf be10 6e5f 68f7 8abf
00000410: eab8 28dc a101 80bf 0d55 cddb d1d5 953f
00000420: 4481 22f0 1f0a 6a3f e47b 50eb 3269 8d3f
00000430: ec22 6758 abae 43bf 7045 dcd0 6e7d 63bf
00000440: 2078 88e4 d990 823f fa85 275c 385c 9cbf
00000450: 69f7 4367 3310 36bf cf90 1039 eda2 82bf
00000460: 808a 9b1d fa44 83bf 948f 000b e06b 8a3f
00000470: 5be7 88c3 4d0f 813f 9ba5 c4a7 cbe4 8a3f
00000480: e9a7 8abe 7636 743f 40e2 f12d c803 6fbf
00000490: 815d 5a0b 280e 593f 1a66 92cd 3b43 9bbf
000004a0: 41c8 441b b6b0 513f 4789 1fd2 6711 61bf
000004b0: 13a9 88c8 9a59 87bf 4cfa c119 e9b5 853f
000004c0: 0d14 7a59 b926 903f 7af0 54c9 5f0c 903f
000004d0: 39c1 de88 2db5 7a3f d585 95bf 15ef 7fbf
000004e0: e227 f268 db18 81bf 1ef4 35eb bf28 98bf
000004f0: 3711 a84c ef13 773f f905 6e7e a414 69bf
00000500: 949f 1a1e 2696 88bf 16fc f1a3 4274 833f
00000510: 2210 e3db bcb3 823f 6988 3a57 b968 8a3f
00000520: aa0b 2964 5276 803f f4b9 1fd4 8a15 7fbf
00000530: 7b96 f1f6 902c 7cbf 791a 3905 3c46 95bf
00000540: a4bd f3b3 e318 803f 5b04 7f54 e567 26bf
00000550: 6cb2 02df df22 84bf 9880 dd06 efd2 763f
00000560: c71b c7a0 f7e6 373f 7fdb 35f0 2022 833f
00000570: ac77 c14a 0789 803f 29b7 d15e 396b 39bf
00000580: 7cdd 89aa 8ced 71bf 8cdb 4b55 8a4f 93bf
00000590: 50c8 0024 85c9 733f 2079 d2e3 8294 753f
000005a0: 2aef 0701 d4c0 89bf 553c 4e6b c504 6e3f
000005b0: 199a 4cb0 6bf6 87bf fbf2 e8b9 e703 963f
000005c0: c532 9fe0 307e 803f bd84 a85f 55c5 54bf
000005d0: 838d 22a9 f184 713f b4a9 4676 9f83 91bf
000005e0: 4d98 9131 fa52 5b3f 3e9c 5a4a 4b7f 6c3f
000005f0: 1d2b 883d be61 90bf f849 a13f a729 7f3f
00000600: 95ab 2f8a 741e 85bf c9f5 b7fa 9c7a 933f
00000610: 953e 177b c225 823f 3de4 7cbe ab1b 663f
00000620: f7c8 b856 9e14 653f e93f df02 cf6e 88bf
00000630: 0908 6355 2b61 3c3f e222 9d3e 4734 68bf
00000640: 098a 502a c343 8abf 5873 5342 b9ac 8d3f
00000650: 9551 a1a1 7675 72bf c15c 94c5 e60b 8c3f
00000660: 25cf 5431 c6de 713f a3e5 70f6 3202 753f
00000670: e2d4 fdcd 3911 22bf 36a3 8137 32d9 92bf
00000680: 681a a46b 3a73 753f f497 e6b8 eecf 7cbf
00000690: 4e90 bbfb c8ba 8bbf 72fb 9c7e a3cd 8b3f
000006a0: 26d7 f536 7f14 3e3f 4730 1b4e 0dfb 823f
000006b0: 9dc9 9e31 880c 663f 1f00 810d 0a28 833f
000006c0: a638 b779 9eff 73bf cd9d 1534 db48 91bf
000006d0: 461e 73aa 7e02 863f e726 a23e 7719 86bf
000006e0: c532 c74d 4d04 87bf 5dd9 3088 21c6 863f
000006f0: 48b6 a857 e913 333f 0cd6 cc4d 3c35 913f
00000700: 4396 4466 ac7f 713f f050 3555 9ede 733f
00000710: 00b5 85a9 05b4 7cbf 0e8c c21d 9f68 8fbf
00000720: 1a3e 86f8 84e9 823f b727 23e9 cc99 8abf
00000730: 39c6 51f4 874d 85bf 66cb 664e 8b93 933f
00000740: 0528 f768 ef66 6bbf c103 3528 be0f 9f3f
00000750: 8797 0eda d612 65bf 888b 4f1b 96e6 36bf
00000760: 88fa 9b75 a8bd 77bf de19 364c 6d4f 86bf
00000770: b33f 51d7 2d07 823f 0127 6a3d 667e 99bf
00000780: 3630 69dd 5916 87bf 6e9a 2bca 1614 903f
00000790: 4de9 da20 ce8e 58bf 7a3b 3606 749a 9e3f
000007a0: aba9 f1d7 56b9 81bf 41b3 48d4 e1be 5ebf
000007b0: f8dc eacf a957 6ebf 7d98 1c41 b544 68bf
000007c0: 672a dcd7 e6e9 853f b7eb 9877 08f3 9abf
000007d0: 0ce1 34b8 092b 88bf 5c3d 7f82 a7cd 863f
000007e0: 3c26 7624 0135 79bf 9c87 5763 b210 9d3f
000007f0: 9653 1c61 a88d 57bf c250 9c3b 03ad 81bf
0.002115603160599872 0.0012453481619923473 -0.0035155080672328786 -0.005173302988959774 -0.027647002117244298 -0.011569365637661623 0.01072734763803775 -0.0036068835458728772
0.035008632343016724 0.0024140793565350766 -0.003835621825385593 0.006554084971847259 0.0066063339131615315 -0.00036605777044090355 -0.012053720280443717 -0.02137532403620087
0.01223536115949601 -0.013590546651348775 0.03058222480580117 -0.004757871829027825 -0.008309797507061073 0.012111747368019853 0.012516819139734969 0.0007627363744937456
-0.0034094832623959613 -0.01947485278093342 0.008330969419592353 -0.012171557055803753 0.02404819691637494 -0.014403981363489941 -0.004364087009544735 0.010861253086326723
0.007987582440264538 -0.0007093172012665444 -0.0003169867065231472 -0.008363315526337208 0.0009691101584271174 -0.01373064377781488 0.025084122546470713 -0.017420845907532023
0.0009931345367748439 0.013464032898027774 0.0017372645293561373 -0.0020553698701735604 0.007006548259928758 -0.003988212289055174 -0.0047361629463186705 -0.014874091420089032
0.020669290942286582 -0.018215087062697647 0.0019661215484996645 0.005624281553275407 0.004274139216284271 0.00011887579285112674 0.0012269976712034844 -0.0057899193295775355
-0.0002638554108412744 -0.0015867710490977622 0.01723328089271157 -0.0228045439267984 -0.002150474410975982 0.006416417045726264 0.006570657136052199 0.0059278140059450465
-0.0008881581846191431 -0.002280260858638143 -0.001271934086835707 -0.006676469962307593 0.0156558493331674 -0.021305231269541414 -0.0065071804911796495 0.007021918576846999
0.00738457015052288 0.018213559605377447 8.011589438329907e-05 -0.005141632461659006 0.0006700880900154463 -0.01767007169671039 0.016871115857851095 -0.020922493568618573
-0.008284901418621878 0.01042061580149244 0.0004741981999054298 0.014671117032250904 0.005276636974180987 -0.01238173614101617 0.01682419134177484 -0.022532652039346304
0.011103237961073856 -0.015565302610427082 -0.010319442596023198 0.013721458530097357 -0.0007179819144654024 0.012091903343927022 0.009588148211856384 -0.002951588051091119
0.013558761435288415 -0.021478034183114125 0.006494385768357173 -0.019988757998232555 -0.009739668898097945 0.008380706156305054 -0.0007114013064529419 0.010812593275424496
0.008284877461011112 0.007026876366299579 0.010179250185030922 -0.022136267689538466 0.007033698292798717 -0.019129355114662922 -0.004984365026429839 0.010395870263699952
0.001129549151329192 0.01780584198277222 0.0011548655553816852 0.006140057226259751 0.001229269293460586 -0.017753627378274052 0.002953509607732585 -0.018073671741530902
-0.008125194771527079 0.027955732926463063 -0.002075433503461645 0.016663352665894724 -0.0018064032874865912 0.0010977673712895398 -0.000251419960128914 -0.018423417201046663
-0.0018661185703678356 -0.013167205250063648 -0.00781561329958121 0.021323470154432523 0.0031786559857921743 0.014360807234025282 -0.0006006561896408614 -0.002379146992901475
0.009065344130302633 -0.027695541977555728 -0.0003366590019736522 -0.00909982042691873 -0.00940890696387453 0.012901068053970545 0.008329970865009242 0.013131705338838276
0.004934753270086725 -0.003785983062297299 0.0015292540605623408 -0.02662366335116504 0.0010797289260833373 -0.0020834949254872367 -0.011401376004034824 0.010600873087466621
0.01577272041915383 0.015672203696553734 0.006520440931055576 -0.007796368555632556 -0.00834819234866652 -0.023592947703480964 0.005634245646892125 -0.003061600949366247
-0.012005136293126197 0.009499092701160488 0.009131885013978606 0.012895057653910596 0.008038181001330209 -0.007588903712515183 -0.006878439205228677 -0.020775735682287497
0.007859972886278772 -0.000170943016426536 -0.00983214282344954 0.005572255800729085 0.00036471887213135014 0.009342439013136914 0.00807386109243765 -0.00038786078113771605
-0.0043769354602923825 -0.018858109909128326 0.004830856400120778 0.005268584526815695 -0.012574821740592396 0.0036643844454782673 -0.011700478856778539 0.021499272081416426
0.008053190092959803 -0.0012677510955046288 0.004277175890965326 -0.01710366401099757 0.0016677325532099719 0.003478667308474153 -0.015997860437020884 0.007608083071391374
-0.0103119949980817 0.019022419741295402 0.008861083394463601 0.002698741376573581 0.002573308234581902 -0.011930100703381146 0.0004330378336697698 -0.002954615735607611
-0.012824558953131964 0.014489600502594221 -0.004506553081303007 0.013694575218819673 0.004362844648585972 0.005129050324336334 -0.00013784247039053734 -0.018406662595597832
0.005236843304607143 -0.007034237393247256 -0.013539858038207477 0.01357581834929331 0.0004589853842483664 0.009267906137573457 0.0026915226016736697 0.009353712594133921
-0.0048824491927474175 -0.016879487089139823 0.010746945931159445 -0.010790759657783379 -0.011238674102878385 0.011120092362131013 0.0002911038097036284 0.016804640053313988
0.004272149501309 0.004850977409052812 -0.007007619970278656 -0.015336268516255937 0.009234465441095675 -0.012988663544451258 -0.010401785033738441 0.01911752382302314
-0.003344981763551582 0.03033349151997178 -0.0025724598239830784 -0.00034943737710884564 -0.005796106381011364 -0.010893682373318943 0.00880275548311702 -0.02489623784871409
-0.01127309996550006 0.0157016335387205 -0.0014988911602090316 0.029886067275181706 -0.008654287781799072 -0.0018765645373932246 -0.0037039105075923305 -0.0029624500392798057
0.010700038397336088 -0.02631772260631823 -0.01180083840755277 0.011134442014649686 -0.006154064619644791 0.02838400584540289 -0.0014375824288823439 -0.00863077665011536
